# YOLOv8-seg + CBAM at Position A (after SPPF)
# Attention: CBAM (Channel + Spatial), Position: Backbone末尾

nc: 80
scales:
  n: [0.33, 0.25, 1024]
  s: [0.33, 0.50, 1024]
  m: [0.67, 0.75, 768]
  l: [1.00, 1.00, 512]
  x: [1.00, 1.25, 512]

backbone:
  - [-1, 1, Conv, [64, 3, 2]]        # 0-P1/2
  - [-1, 1, Conv, [128, 3, 2]]       # 1-P2/4
  - [-1, 3, C2f, [128, True]]        # 2
  - [-1, 1, Conv, [256, 3, 2]]       # 3-P3/8
  - [-1, 6, C2f, [256, True]]        # 4
  - [-1, 1, Conv, [512, 3, 2]]       # 5-P4/16
  - [-1, 6, C2f, [512, True]]        # 6
  - [-1, 1, Conv, [1024, 3, 2]]      # 7-P5/32
  - [-1, 3, C2f, [1024, True]]       # 8
  - [-1, 1, SPPF, [1024, 5]]         # 9
  - [-1, 1, CBAM, [1024]]            # 10 ← CBAM attention

head:
  - [-1, 1, nn.Upsample, [None, 2, "nearest"]]   # 11
  - [[-1, 6], 1, Concat, [1]]                     # 12 cat backbone P4
  - [-1, 3, C2f, [512]]                           # 13

  - [-1, 1, nn.Upsample, [None, 2, "nearest"]]    # 14
  - [[-1, 4], 1, Concat, [1]]                     # 15 cat backbone P3
  - [-1, 3, C2f, [256]]                           # 16 (P3/8-small)

  - [-1, 1, Conv, [256, 3, 2]]                    # 17
  - [[-1, 13], 1, Concat, [1]]                    # 18 cat head P4
  - [-1, 3, C2f, [512]]                           # 19 (P4/16-medium)

  - [-1, 1, Conv, [512, 3, 2]]                    # 20
  - [[-1, 10], 1, Concat, [1]]                    # 21 cat CBAM output (was SPPF #9, now #10)
  - [-1, 3, C2f, [1024]]                          # 22 (P5/32-large)

  - [[16, 19, 22], 1, Segment, [nc, 32, 256]]     # 23 Segment(P3, P4, P5)
